examples/logs/tmp/shac/04-23-2024-16-55-19/init_policy.pt (torch, 137426 bytes, 35 tensors)

logstd f4 [8]
-1.0 -1.0 -1.0 -1.0 -1.0 -1.0 -1.0 -1.0
00000000: 0000 80bf 0000 80bf 0000 80bf 0000 80bf
00000010: 0000 80bf 0000 80bf 0000 80bf 0000 80bf

weight f4 [128, 37]
-0.0012308257 0.08819078 -0.13530779 -0.120987624 -0.06331898 0.0440848 -0.0032572667 0.13035022
-0.014589431 0.043502036 -0.049683522 -0.03231515 -0.15705831 -0.10887851 -0.06776906 0.0060899253
0.0649927 0.09864314 -0.111452825 -0.07158965 0.059712525 0.13651493 -0.03383334 0.12302169
-0.02649838 0.017395731 0.14885937 -0.15250807 -0.1034954 -0.04162011 -0.06408272 0.14204085
-0.106560074 -0.07567826 -0.11485578 -0.15396968 -0.09596634 0.14131704 0.07335784 0.079679675
0.008645999 -0.08428465 0.02781379 -0.15349846 -0.11878916 -0.084752604 0.10372555 0.09639061
-0.07291013 -0.005931908 0.10514313 0.16343448 0.06524703 0.022209128 0.11022727 -0.0967985
0.030634768 -0.12745944 -0.11394266 -0.084925815 0.074386105 0.06611476 -0.09738215 0.0496661
0.09025044 -0.020750007 0.006277007 0.038092017 0.10198928 0.15785493 -0.12668973 -0.060247254
0.06461043 0.13621268 0.14306119 0.14505856 0.03271779 -0.1429585 0.0151234735 -0.10284888
-0.15321231 0.14606726 0.12500237 -0.16399258 0.030770896 -0.027694654 -0.027053686 -0.07525477
0.06322064 -0.0973741 0.060267244 0.0831379 0.11768856 0.061470613 -0.16271147 -0.10664511
0.08208688 0.03440893 -0.12824503 -0.09466414 0.15465823 0.11077497 -0.07168209 -0.04137672
-0.15660615 -0.00295493 -0.12380212 -0.12681025 -0.009058319 0.024683693 -0.06732636 0.097550675
-0.10004321 0.14917073 0.112662606 -0.13863486 -0.040916327 0.0074181133 0.02398599 0.03899121
0.06451481 0.009847526 -0.08021499 0.07779179 -0.15769954 -0.09744038 -0.041153975 -0.08008094
-0.05751225 -0.13474497 -0.034970153 0.03514134 -0.10710031 -0.00843685 0.11768515 -0.016900256
0.0045690117 -0.01418252 0.03327129 0.10453136 0.15572631 0.10440254 0.15608262 -0.011889607
-0.14768314 -0.07793781 0.11194012 -0.0010657135 -0.081713915 -0.12598087 -0.15385312 -0.13875408
-0.033346158 0.09015739 0.088880844 -0.15855162 0.102549136 -0.12864375 -0.034755636 -0.06665929
-0.031665754 -0.03227854 -0.14752342 -0.14194831 -0.025725067 0.0021260374 -0.07468233 0.061928965
-0.14796868 -0.011094834 0.14457566 -0.06705703 0.14845279 0.059537712 -0.14836366 0.1040148
-0.018970734 -0.07338883 0.13146219 -0.13285004 0.017640822 -0.034420002 0.117399395 0.045891076
0.07899459 0.058058973 -0.039533798 -0.034574002 -0.13547815 0.08907863 0.1305292 0.11248587
-0.115963474 0.007332177 -0.11589045 -0.090499036 -0.09579619 0.056182534 -0.09796752 -0.0035867267
0.0069159567 0.105975375 -0.12427249 -0.11286192 -0.09546017 0.11506834 -0.05909568 0.13866869
0.059447914 0.020817189 -0.00122379 -0.032498647 0.02062654 -0.037539635 -0.0011551386 0.020976165
-0.12859373 -0.08616667 0.13275099 -0.13341744 -0.011804865 0.16262984 0.059387002 0.004654635
-0.1424698 0.08143962 -0.117098235 -0.046666995 -0.055158544 -0.024345415 0.0017982433 0.13559751
0.020523377 0.147251 0.100564905 -0.10393533 0.07373361 -0.116212994 -0.06967642 0.04835347
0.054283243 0.123336725 -0.05292264 0.00026318 0.08463647 -0.15898897 0.11885728 -0.1359452
0.0022658291 -0.027950583 -0.0865845 0.021728784 0.13594459 -0.048057035 -0.0976027 -0.06080113
00000000: a853 a1ba 5e9d b43d 208e 0abe 5cc8 f7bd
00000010: 62ad 81bd 4392 343d de77 55bb 877a 053e
00000020: 8208 6fbc 312f 323d f380 4bbd e45c 04bd
00000030: e5d3 20be b2fb debd 81ca 8abd ff8d c73b
00000040: e51a 853d 6a05 ca3d 6141 e4bd 989d 92bd
00000050: 1f95 743d 92ca 0b3e d494 0abd ccf2 fb3d
00000060: 2113 d9bc 7e81 8e3c 976e 183e 132b 1cbe
00000070: 65f5 d3bd d979 2abd cd3d 83bd 2873 113e
00000080: 2b3c dabd 34fd 9abd 8239 ebbd 3aaa 1dbe
00000090: 008a c4bd 6ab5 103e a33c 963d 192f a33d
000000a0: f3a7 0d3c 6e9d acbd bfd9 e33c b32e 1dbe
000000b0: bb47 f3bd c692 adbd 106e d43d 7168 c53d
000000c0: e851 95bd 7360 c2bb 4855 d73d 5e5b 273e
000000d0: 3ca0 853d ebef b53c d6be e13d 4b3e c6bd
000000e0: c4f5 fa3c ba84 02be c55a e9bd 96ed adbd
000000f0: be57 983d 2d67 873d 4b70 c7bd ae6e 4b3d
00000100: 39d5 b83d ebfb a9bc 5aaf cd3b 6006 1c3d
00000110: c1df d03d b9a4 213e f4ba 01be d3c5 76bd
00000120: 7952 843d 567b 0b3e a27e 123e 3b8a 143e
00000130: 1703 063d b763 12be 72c8 773c 6fa2 d2bd
00000140: b0e3 1cbe a892 153e 9f00 003e aced 27be
00000150: 3f13 fc3c e6df e2bc b19f ddbc 2c1f 9abd
00000160: d379 813d 126c c7bd c9da 763d 3444 aa3d
00000170: b306 f13d 9cc8 7b3d d69d 26be c068 dabd
00000180: 2b1d a83d 61f0 0c3d aa52 03be 46df c1bd
00000190: ba5e 1e3e fddd e23d 0fce 92bd a37a 29bd
000001a0: 5d5d 20be 80a7 41bb f78b fdbd 8cda 01be
000001b0: 5869 14bc 7535 ca3c 67e2 89bd a6c8 c73d
000001c0: 74e3 ccbd 36c0 183e a7bb e63d 4cf6 0dbe
000001d0: e197 27bd a513 f33b 447e c43c 3fb5 1f3d
000001e0: 5720 843d 8557 213c c247 a4bd 4d51 9f3d
000001f0: fd7b 21be d28e c7bd 1291 28bd 7a01 a4bd
00000200: f791 6bbd 96fa 09be dd3c 0fbd 5ef0 0f3d
00000210: 6857 dbbd b73a 0abc e904 f13d 6872 8abc
00000220: a6b7 953b cd5d 68bc 7a47 083d 8a14 d63d
00000230: b876 1f3e 00d1 d53d 1fd4 1f3e a0cc 42bc
00000240: 403a 17be dc9d 9fbd dd40 e53d 69af 8bba
00000250: a059 a7bd 2101 01be ac8b 1dbe 8d15 0ebe
00000260: fb95 08bd 70a4 b83d 2907 b63d 5b5b 22be
00000270: 4805 d23d 30bb 03be ed5b 0ebd aa84 88bd
00000280: f3b3 01bd 8136 04bd 6110 17be e65a 11be
00000290: 60bd d2bc fd54 0b3b 0df3 98bd 3aa9 7d3d
000002a0: 1a85 17be 1bc7 35bc a40b 143e 3255 89bd
000002b0: 0204 183e d1dd 733d a5ec 17be b605 d53d
000002c0: 8368 9bbc e24c 96bd 069e 063e d709 08be
000002d0: 7c83 903c fdfb 0cbd 186f f03d 48f8 3b3d
000002e0: eac7 a13d 3fcf 6d3d 31ee 21bd 789d 0dbd
000002f0: c9ba 0abe db6e b63d 72a9 053e fe5e e63d
00000300: 427e edbd c242 f03b f957 edbd 8f57 b9bd
00000310: cb30 c4bd a81f 663d 32a3 c8bd 4a0f 6bbb
00000320: 409f e23b 9e09 d93d 9382 febd 2624 e7bd
00000330: 9f80 c3bd f3a8 eb3d 500e 72bd 2aff 0d3e
00000340: a87f 733d cf88 aa3c 9467 a0ba 4d1d 05bd
00000350: fdf8 a83c 29c3 19bd 0568 97ba 35d6 ab3c
00000360: 13ae 03be 2778 b0bd e0ef 073e 959e 08be
00000370: 3169 41bc 7088 263e c93f 733d e985 983b
00000380: 9ae3 11be d1c9 a63d 33d1 efbd e425 3fbd
00000390: eded 61bd 0970 c7bc 08b3 eb3a 13da 0a3e
000003a0: a420 a83c f7c8 163e f9f4 cd3d 0cdc d4bd
000003b0: a601 973d 1401 eebd 83b2 8ebd 4a0e 463d
000003c0: 1b58 5e3d f797 fc3d 69c5 58bd 6cfb 8939
000003d0: e355 ad3d 01ce 22be 726b f33d 3835 0bbe
000003e0: 4e7e 143b 9ff8 e4bc 3753 b1bd 9000 b23c
000003f0: 0f35 0b3e 74d7 44bd ede3 c7bd 9b0a 79bd

bias f4 [128]
-0.0077375197 0.05154105 -0.06571287 -0.053680647 -0.018070485 -0.08310891 0.10059807 0.10251907
-0.12780385 0.050424322 -0.06791405 -0.094536655 -0.020056417 -0.05099037 -0.09360719 0.024228474
0.0938346 -0.025367877 -0.011499902 0.012371166 -0.070655145 0.0870347 0.15168743 -0.015025425
0.011175518 0.1324622 0.13465247 -0.122296415 -0.076133594 -0.16126375 0.10069296 0.12831396
-0.059834894 0.052734833 0.03982304 -0.14144194 0.06565004 0.08066749 0.0036155356 0.01685912
0.0382021 0.118434355 0.1452581 0.023628563 0.07007616 -0.04301099 0.0980154 -0.0646666
-0.13551229 0.07713181 0.060973372 0.0361855 0.0699466 0.019562924 0.055951376 0.06698979
-0.08868443 -0.008808524 0.024775196 -0.024959534 -0.13822402 0.015594763 0.10047082 -0.08792033
0.16140835 0.037492342 0.06991999 -0.063481905 -0.13448049 -0.06118278 0.005022683 -0.074912295
0.14640822 -0.10522088 -0.11072686 -0.058313254 0.14749087 -0.07517226 0.15209071 0.079004996
-0.02497927 0.08502845 0.07815664 -0.08367776 -0.03384559 0.1592409 0.09425331 -0.08029583
-0.04420507 0.09214432 0.0834597 0.013031575 -0.10578141 -0.1212551 -0.034699548 0.060444094
-0.017526604 -0.13745111 -0.040290825 0.16409744 -0.13587892 -0.12758927 0.103346065 0.16357815
-0.15814573 -0.14868876 -0.051405217 0.16391152 -0.093305714 0.014056035 0.1342033 -0.058198705
-0.050415482 -0.11035007 0.006312185 0.15344647 0.06722487 0.11555441 -0.010891642 -0.02611289
-0.029370548 0.09376444 -0.021557283 -0.1404289 -0.057728413 0.06433837 0.16028461 -0.029893048
00000000: 058b fdbb b51c 533d 7894 86bd 3de0 5bbd
00000010: 8e08 94bc 0135 aabd 5c06 ce3d 85f5 d13d
00000020: 03df 02be bc89 4e3d 8516 8bbd 6f9c c1bd
00000030: 5b4d a4bc 47db 50bd 20b5 bfbd cb7a c63c
00000040: 5b2c c03d 4bd0 cfbc 166a 3cbc 6eb0 4a3c
00000050: a5b3 90bd 403f b23d f353 1b3e 332d 76bc
00000060: 8519 373c 2ca4 073e 56e2 093e 8b76 fabd
00000070: eeeb 9bbd 5322 25be 1c38 ce3d bc64 033e
00000080: 6f15 75bd 7b00 583d 7c1d 233d 28d6 10be
00000090: 8773 863d ff34 a53d 9ff2 6c3b 231c 8a3c
000000a0: ce79 1c3d b68d f23d 8abe 143e b090 c13c
000000b0: 1784 8f3d 4b2c 30bd 4cbc c83d ec6f 84bd
000000c0: bcc3 0abe 48f7 9d3d 37bf 793d 3f37 143d
000000d0: 2a40 8f3d 6d42 a03c 452d 653d f131 893d
000000e0: 2fa0 b5bd a151 10bc 5af5 ca3c f077 ccbc
000000f0: 998a 0dbe 2d81 7f3c a5c3 cd3d 930f b4bd
00000100: 3b48 253e 9291 193d 3632 8f3d cd02 82bd
00000110: 41b5 09be cb9a 7abd 5295 a43b 9e6b 99bd
00000120: 09ec 153e 0b7e d7bd c4c4 e2bd e1d9 6ebd
00000130: d907 173e eaf3 99bd abbd 1b3e 5fcd a13d
00000140: 53a1 ccbc 6523 ae3d 9710 a03d 3f5f abbd
00000150: aca1 0abd 0c10 233e e107 c13d 2472 a4bd
00000160: 6010 35bd 29b6 bc3d ebec aa3d 6382 553c
00000170: eda3 d8bd 9854 f8bd 1d21 0ebd 3a94 773d
00000180: f493 8fbc fcbf 0cbe fe07 25bd 2909 283e
00000190: d823 0bbe c3a6 02be 1aa7 d33d 0881 273e
000001a0: f4f0 21be de41 18be 478e 52bd 6cd8 273e
000001b0: 1117 bfbd 494b 663c 976c 093e c461 6ebd
000001c0: 7780 4ebd 38ff e1bd 72d6 ce3b 1221 1d3e
000001d0: 31ad 893d caa7 ec3d dc72 32bc b3ea d5bc
000001e0: 819a f0bc 9207 c03d e698 b0bc 98cc 0fbe
000001f0: a174 6cbd d6c3 833d a621 243e 44e2 f4bc

weight f4 [128]
1.0 1.0 1.0 1.0 1.0 1.0 1.0 1.0
1.0 1.0 1.0 1.0 1.0 1.0 1.0 1.0
1.0 1.0 1.0 1.0 1.0 1.0 1.0 1.0
1.0 1.0 1.0 1.0 1.0 1.0 1.0 1.0
1.0 1.0 1.0 1.0 1.0 1.0 1.0 1.0
1.0 1.0 1.0 1.0 1.0 1.0 1.0 1.0
1.0 1.0 1.0 1.0 1.0 1.0 1.0 1.0
1.0 1.0 1.0 1.0 1.0 1.0 1.0 1.0
1.0 1.0 1.0 1.0 1.0 1.0 1.0 1.0
1.0 1.0 1.0 1.0 1.0 1.0 1.0 1.0
1.0 1.0 1.0 1.0 1.0 1.0 1.0 1.0
1.0 1.0 1.0 1.0 1.0 1.0 1.0 1.0
1.0 1.0 1.0 1.0 1.0 1.0 1.0 1.0
1.0 1.0 1.0 1.0 1.0 1.0 1.0 1.0
1.0 1.0 1.0 1.0 1.0 1.0 1.0 1.0
1.0 1.0 1.0 1.0 1.0 1.0 1.0 1.0
00000000: 0000 803f 0000 803f 0000 803f 0000 803f
00000010: 0000 803f 0000 803f 0000 803f 0000 803f
00000020: 0000 803f 0000 803f 0000 803f 0000 803f
00000030: 0000 803f 0000 803f 0000 803f 0000 803f
00000040: 0000 803f 0000 803f 0000 803f 0000 803f
00000050: 0000 803f 0000 803f 0000 803f 0000 803f
00000060: 0000 803f 0000 803f 0000 803f 0000 803f
00000070: 0000 803f 0000 803f 0000 803f 0000 803f
00000080: 0000 803f 0000 803f 0000 803f 0000 803f
00000090: 0000 803f 0000 803f 0000 803f 0000 803f
000000a0: 0000 803f 0000 803f 0000 803f 0000 803f
000000b0: 0000 803f 0000 803f 0000 803f 0000 803f
000000c0: 0000 803f 0000 803f 0000 803f 0000 803f
000000d0: 0000 803f 0000 803f 0000 803f 0000 803f
000000e0: 0000 803f 0000 803f 0000 803f 0000 803f
000000f0: 0000 803f 0000 803f 0000 803f 0000 803f
00000100: 0000 803f 0000 803f 0000 803f 0000 803f
00000110: 0000 803f 0000 803f 0000 803f 0000 803f
00000120: 0000 803f 0000 803f 0000 803f 0000 803f
00000130: 0000 803f 0000 803f 0000 803f 0000 803f
00000140: 0000 803f 0000 803f 0000 803f 0000 803f
00000150: 0000 803f 0000 803f 0000 803f 0000 803f
00000160: 0000 803f 0000 803f 0000 803f 0000 803f
00000170: 0000 803f 0000 803f 0000 803f 0000 803f
00000180: 0000 803f 0000 803f 0000 803f 0000 803f
00000190: 0000 803f 0000 803f 0000 803f 0000 803f
000001a0: 0000 803f 0000 803f 0000 803f 0000 803f
000001b0: 0000 803f 0000 803f 0000 803f 0000 803f
000001c0: 0000 803f 0000 803f 0000 803f 0000 803f
000001d0: 0000 803f 0000 803f 0000 803f 0000 803f
000001e0: 0000 803f 0000 803f 0000 803f 0000 803f
000001f0: 0000 803f 0000 803f 0000 803f 0000 803f

bias f4 [128]
0.0 0.0 0.0 0.0 0.0 0.0 0.0 0.0
0.0 0.0 0.0 0.0 0.0 0.0 0.0 0.0
0.0 0.0 0.0 0.0 0.0 0.0 0.0 0.0
0.0 0.0 0.0 0.0 0.0 0.0 0.0 0.0
0.0 0.0 0.0 0.0 0.0 0.0 0.0 0.0
0.0 0.0 0.0 0.0 0.0 0.0 0.0 0.0
0.0 0.0 0.0 0.0 0.0 0.0 0.0 0.0
0.0 0.0 0.0 0.0 0.0 0.0 0.0 0.0
0.0 0.0 0.0 0.0 0.0 0.0 0.0 0.0
0.0 0.0 0.0 0.0 0.0 0.0 0.0 0.0
0.0 0.0 0.0 0.0 0.0 0.0 0.0 0.0
0.0 0.0 0.0 0.0 0.0 0.0 0.0 0.0
0.0 0.0 0.0 0.0 0.0 0.0 0.0 0.0
0.0 0.0 0.0 0.0 0.0 0.0 0.0 0.0
0.0 0.0 0.0 0.0 0.0 0.0 0.0 0.0
0.0 0.0 0.0 0.0 0.0 0.0 0.0 0.0
00000000: 0000 0000 0000 0000 0000 0000 0000 0000
00000010: 0000 0000 0000 0000 0000 0000 0000 0000
00000020: 0000 0000 0000 0000 0000 0000 0000 0000
00000030: 0000 0000 0000 0000 0000 0000 0000 0000
00000040: 0000 0000 0000 0000 0000 0000 0000 0000
00000050: 0000 0000 0000 0000 0000 0000 0000 0000
00000060: 0000 0000 0000 0000 0000 0000 0000 0000
00000070: 0000 0000 0000 0000 0000 0000 0000 0000
00000080: 0000 0000 0000 0000 0000 0000 0000 0000
00000090: 0000 0000 0000 0000 0000 0000 0000 0000
000000a0: 0000 0000 0000 0000 0000 0000 0000 0000
000000b0: 0000 0000 0000 0000 0000 0000 0000 0000
000000c0: 0000 0000 0000 0000 0000 0000 0000 0000
000000d0: 0000 0000 0000 0000 0000 0000 0000 0000
000000e0: 0000 0000 0000 0000 0000 0000 0000 0000
000000f0: 0000 0000 0000 0000 0000 0000 0000 0000
00000100: 0000 0000 0000 0000 0000 0000 0000 0000
00000110: 0000 0000 0000 0000 0000 0000 0000 0000
00000120: 0000 0000 0000 0000 0000 0000 0000 0000
00000130: 0000 0000 0000 0000 0000 0000 0000 0000
00000140: 0000 0000 0000 0000 0000 0000 0000 0000
00000150: 0000 0000 0000 0000 0000 0000 0000 0000
00000160: 0000 0000 0000 0000 0000 0000 0000 0000
00000170: 0000 0000 0000 0000 0000 0000 0000 0000
00000180: 0000 0000 0000 0000 0000 0000 0000 0000
00000190: 0000 0000 0000 0000 0000 0000 0000 0000
000001a0: 0000 0000 0000 0000 0000 0000 0000 0000
000001b0: 0000 0000 0000 0000 0000 0000 0000 0000
000001c0: 0000 0000 0000 0000 0000 0000 0000 0000
000001d0: 0000 0000 0000 0000 0000 0000 0000 0000
000001e0: 0000 0000 0000 0000 0000 0000 0000 0000
000001f0: 0000 0000 0000 0000 0000 0000 0000 0000

weight f4 [64, 128]
-0.07695654 -0.06508192 -0.06954453 0.03562965 0.06515359 0.026139496 0.030475847 0.05758328
0.06043291 0.05277954 0.049426746 0.023916988 0.045622803 -0.060649008 -0.057209782 0.02377139
0.013755182 -0.07770414 -0.06439076 -0.07036378 0.070200145 0.057788163 -0.04652324 0.013336116
-0.020329963 0.07683831 -0.0800564 -0.06448285 -0.07358906 0.051440112 -0.044184238 0.052644975
0.029878132 -0.043203562 -0.023810957 -0.035769228 0.038994662 -0.035446573 0.02999627 0.0063144406
-0.0705875 -0.055561967 -0.061286163 0.046315033 0.019152097 -0.0022224349 -0.052630063 -0.08757583
-0.03127943 -0.06764735 -0.08791668 -0.08430129 -0.057734776 -0.08592591 0.027552921 0.033072494
0.035626497 -0.08799014 0.054655768 0.017232507 0.04519635 -0.021723803 0.042445373 -0.08382884
0.030105714 0.07008875 0.03715541 -0.08331599 -0.024812682 -0.01097642 0.04631141 -0.033446338
0.012712606 -0.031028805 -0.014041233 -0.0017594834 -0.050754044 -0.061349772 0.07296786 0.07426382
-0.002675935 0.07650621 0.068110794 -0.055674184 -0.035121907 -0.060709268 0.028576806 0.002235353
-0.012121318 0.06562542 -0.034548394 -0.04837414 -0.06283316 -0.044965725 0.08519122 -0.042973578
-0.024320344 0.039837897 -0.06788516 -0.05364807 0.06505456 -0.033900734 -0.04586536 -0.011435536
-0.012594648 0.016153285 0.032405045 -0.0681515 0.08032395 -0.0840355 0.029935788 -0.024939332
-0.037326008 0.08268027 -0.085175715 0.0060365666 0.056637894 0.07901866 -0.07472485 0.01064937
0.087449655 -0.08657895 0.021589028 -0.05538157 0.014348673 -0.07995472 0.04348737 -0.019607998
0.05282467 -0.001329143 -0.012598841 -0.021459205 -0.08093201 -0.037543915 0.002935412 -0.06838133
0.0775697 -0.05748476 -0.0344354 -0.011820073 -0.071600094 -0.00069834164 -0.042562805 -0.07398449
0.0021680337 0.07824917 0.02176557 0.072901785 -0.00086436863 -0.030850986 0.071237296 -0.047068376
-0.08176851 0.019344918 0.044050515 -0.052835435 0.031109547 -0.031358697 -0.010724455 -0.019570773
-0.018905621 -0.071918346 0.021662531 -0.023250002 0.06758487 0.014753019 -0.07228586 -0.06724181
-0.046064787 0.042327162 -0.057067547 -0.040435273 0.016046865 -0.061279453 -0.04352466 0.08014924
-0.04673036 -0.029448498 0.06321539 0.019806426 0.06937598 -0.077869244 0.044180516 -0.013519697
-0.05662567 -0.037856415 -0.08549576 0.061144866 -0.01696006 -0.0866687 0.075591184 0.057249602
0.03654705 0.086508356 0.07981946 0.08260408 0.07915402 0.07183121 0.023139104 -0.007402135
0.003361348 -0.036732223 0.041529946 0.0025606633 0.020853112 -0.056935143 -0.03328073 0.06626498
0.008596777 0.030502096 -0.07716368 -0.037850197 -0.0022495354 -0.009275078 0.05642225 -0.026674256
0.07376868 -0.017094994 0.03437855 -0.06222787 0.015002455 -0.086173065 -0.0758362 -0.056569003
0.02474493 0.006850717 0.00855462 -0.009668666 0.074268274 0.08658523 0.03753751 0.070291266
-0.0043683313 -0.032494366 0.017183512 0.0581185 -0.013660562 -0.06786738 0.029189011 -0.022531578
-0.042547643 0.05582806 -0.003000097 -0.050524965 -0.05288912 0.083240636 0.057491988 -0.06337964
4.2252213e-05 -0.0019122552 0.042131558 -0.07570131 0.0013136435 0.029450132 0.044981096 0.00924215
00000000: 649b 9dbd ab49 85bd 5d6d 8ebd 65f0 113d
00000010: 3f6f 853d 7f22 d63c 7ca8 f93c 72dc 6b3d
00000020: 8088 773d 5c2f 583d b373 4a3d 8fed c33c
00000030: fade 3a3d 186b 78bd ce54 6abd 38bc c23c
00000040: 6a5d 613c 5923 9fbd 4edf 83bd e31a 90bd
00000050: 18c5 8f3d 48b3 6c3d 278f 3ebd ba7f 5a3c
00000060: 068b a6bc 675d 9d3d 9cf4 a3bd 960f 84bd
00000070: dcb5 96bd deb2 523d 88fa 34bd 42a2 573d
00000080: fcc2 f43c 38f6 30bd 320f c3bc c182 12bd
00000090: deb8 1f3d 6d30 11bd bdba f53c 5ee9 ce3b
000000a0: 2e90 90bd f294 63bd 3307 7bbd d5b4 3d3d
000000b0: dce4 9c3c 45a6 11bb 9f92 57bd f55a b3bd
000000c0: dc1e 00bd b28a 8abd a90d b4bd 28a6 acbd
000000d0: 4d7b 6cbd ecf9 afbd aab6 e13c 0677 073d
000000e0: 17ed 113d 2d34 b4bd bade 5f3d 302b 8d3c
000000f0: cf1f 393d 1ef6 b1bc 33db 2d3d 74ae abbd
00000100: 42a0 f63c b18a 8f3d 4530 183d 93a1 aabd
00000110: f743 cbbc 71d6 33bc 08b1 3d3d 07ff 08bd
00000120: 8948 503c 1f30 febc 330d 66bc 779e e6ba
00000130: 79e3 4fbd e649 7bbd 2c70 953d a117 983d
00000140: bd5e 2fbb 4aaf 9c3d ac7d 8b3d 9d0a 64bd
00000150: fddb 0fbd 48aa 78bd e819 ea3c 007f 123b
00000160: 7e98 46bc 9f66 863d 9e82 0dbd f623 46bd
00000170: acae 80bd fb2d 38bd bc78 ae3d 1005 30bd
00000180: 753b c7bc 102d 233d 6007 8bbd 14be 5bbd
00000190: 533b 853d 7fdb 0abd 51dd 3bbd 1d5c 3bbc
000001a0: c859 4ebc e553 843c 27bb 043d 0393 8bbd
000001b0: e280 a43d ce1a acbd e63b f53c 924d ccbc
000001c0: 28e3 18bd 4654 a93d 9b70 aebd 64ce c53b
000001d0: 23fd 673d 89d4 a13d 5809 99bd b27a 2e3c
000001e0: ce18 b33d 4e50 b1bd 79db b03c c9d7 62bd
000001f0: b216 6b3c 4dbf a3bd d01f 323d f4a0 a0bc
00000200: ae5e 583d a336 aeba 5f6b 4ebc 37cb afbc
00000210: afbf a5bd a6c7 19bd 0b60 403b 830b 8cbd
00000220: dddc 9e3d 2475 6bbd 220c 0dbd fba8 41bc
00000230: 12a3 92bd ea10 37ba 5656 2ebd 2e85 97bd
00000240: 9215 0e3b 1a41 a03d b54d b23c 884d 953d
00000250: cc96 62ba 35bb fcbc dce4 913d c5ca 40bd
00000260: 4076 a7bd 3c79 9e3c 506e 343d f869 58bd
00000270: 73d9 fe3c fa71 00bd a0b5 2fbc e352 a0bc
00000280: f6df 9abc ed49 93bd 9f75 b13c ca76 bebc
00000290: f069 8a3d a6b6 713c 9c0a 94bd 13b6 89bd
000002a0: 6eae 3cbd 3f5f 2d3d a9bf 69bd 759f 25bd
000002b0: b774 833c 2a00 7bbd ea46 32bd 4925 a43d
000002c0: 5568 3fbd fa3d f1bc 1277 813d 1641 a23c
000002d0: fe14 8e3d e979 9fbd a1f6 343d b881 5dbc
000002e0: 52f0 67bd 540f 1bbd 6718 afbd 0a73 7a3d
000002f0: d3ef 8abc 5c7f b1bd 8dcf 9a3d 8f7e 6a3d
00000300: 5cb2 153d 4b2b b13d 6378 a33d 542c a93d
00000310: 811b a23d 3e1c 933d 388e bd3c 9c8d f2bb
00000320: 104a 5c3b 8774 16bd 4e1b 2a3d cdd0 273b
00000330: 25d4 aa3c d334 69bd 6051 08bd efb5 873d
00000340: 7fd9 0c3c 88df f93c fe07 9ebd cf08 1bbd
00000350: f16c 13bb 7ff6 17bc 041b 673d f883 dabc
00000360: 0914 973d cd0a 8cbc 86d0 0c3d a7e2 7ebd
00000370: dbcc 753c 817b b0bd 0250 9bbd e6b4 67bd
00000380: e1b5 ca3c fb7b e03b ad28 0c3c 5369 1ebc
00000390: f719 983d 9953 b13d efc0 193d def4 8f3d
000003a0: 3824 8fbb d018 05bd 70c4 8c3c aa0d 6e3d
000003b0: 8dd0 5fbc 0efe 8abd cb1d ef3c 2594 b8bc
000003c0: 7046 2ebd f7ab 643d 469d 44bb 44f3 4ebd
000003d0: 43a2 58bd 117a aa3d b87c 6b3d 2fcd 81bd
000003e0: f837 3138 a3a4 faba 2492 2c3d 4a09 9bbd
000003f0: 902e ac3a 6741 f13c 193e 383d 636c 173c

bias f4 [64]
-0.042918283 -0.054484967 0.0060918527 -0.038190767 0.030484647 -0.03312819 -0.023586545 0.07889051
-0.044487946 -0.07638229 0.012190227 -0.06676262 -0.027834442 -0.070127055 -0.06324299 0.007920362
0.040150203 -0.022767738 -0.08505396 -0.07223155 -0.0058028623 0.044245645 -0.021764359 0.037819516
0.01809791 0.07743497 0.039073247 0.014205806 -0.04620209 -0.008229773 0.07359688 0.03258337
-0.05852546 0.070408344 0.04750036 -0.048811782 0.006238998 0.030227624 0.0365736 -0.012799092
-0.0027190933 0.052860904 0.0012085924 -0.041871954 0.06561527 0.06368843 -0.03643009 -0.079975575
-0.04260391 -0.0638337 -0.014202455 -0.0774481 -0.06588647 0.027486278 -0.0099475095 -0.011753723
0.013509498 0.02747848 0.063678704 -0.011451572 -0.0049285577 -0.082353495 -0.085154004 -0.059971604
00000000: 15cb 2fbd a12b 5fbd 2a9e c73b ec6d 1cbd
00000010: f0ba f93c 6db1 07bd 9238 c1bc 5991 a13d
00000020: fe38 36bd 516e 9cbd 85b9 473c d7ba 88bd
00000030: 0e05 e4bc c69e 8fbd 8a85 81bd 68c4 013c
00000040: 8a74 243d 6883 babc c530 aebd 23ee 93bd
00000050: f025 bebb ec3a 353d 2b4b b2bc a3e8 1a3d
00000060: 1142 943c 3a96 9e3d 450b 203d 78bf 683c
00000070: 673e 3dbd 2bd6 06bc f6b9 963d 2476 053d
00000080: 65b8 6fbd 4032 903d bd8f 423d ddee 47bd
00000090: 8270 cc3b ec9f f73c 33ce 153d 48b3 51bc
000000a0: d132 32bb ad84 583d a269 9e3a ed81 2bbd
000000b0: 4c61 863d 146f 823d b837 15bd 3cca a3bd
000000c0: 7081 2ebd 3ebb 82bd 6ab1 68bc 1c9d 9ebd
000000d0: 7cef 86bd e72a e13c e1fa 22bc b092 40bc
000000e0: f156 5d3c 8d1a e13c fb69 823d 609f 3bbc
000000f0: bd7f a1bb f3a8 a8bd 3965 aebd c9a4 75bd

weight f4 [64]
1.0 1.0 1.0 1.0 1.0 1.0 1.0 1.0
1.0 1.0 1.0 1.0 1.0 1.0 1.0 1.0
1.0 1.0 1.0 1.0 1.0 1.0 1.0 1.0
1.0 1.0 1.0 1.0 1.0 1.0 1.0 1.0
1.0 1.0 1.0 1.0 1.0 1.0 1.0 1.0
1.0 1.0 1.0 1.0 1.0 1.0 1.0 1.0
1.0 1.0 1.0 1.0 1.0 1.0 1.0 1.0
1.0 1.0 1.0 1.0 1.0 1.0 1.0 1.0
00000000: 0000 803f 0000 803f 0000 803f 0000 803f
00000010: 0000 803f 0000 803f 0000 803f 0000 803f
00000020: 0000 803f 0000 803f 0000 803f 0000 803f
00000030: 0000 803f 0000 803f 0000 803f 0000 803f
00000040: 0000 803f 0000 803f 0000 803f 0000 803f
00000050: 0000 803f 0000 803f 0000 803f 0000 803f
00000060: 0000 803f 0000 803f 0000 803f 0000 803f
00000070: 0000 803f 0000 803f 0000 803f 0000 803f
00000080: 0000 803f 0000 803f 0000 803f 0000 803f
00000090: 0000 803f 0000 803f 0000 803f 0000 803f
000000a0: 0000 803f 0000 803f 0000 803f 0000 803f
000000b0: 0000 803f 0000 803f 0000 803f 0000 803f
000000c0: 0000 803f 0000 803f 0000 803f 0000 803f
000000d0: 0000 803f 0000 803f 0000 803f 0000 803f
000000e0: 0000 803f 0000 803f 0000 803f 0000 803f
000000f0: 0000 803f 0000 803f 0000 803f 0000 803f

bias f4 [64]
0.0 0.0 0.0 0.0 0.0 0.0 0.0 0.0
0.0 0.0 0.0 0.0 0.0 0.0 0.0 0.0
0.0 0.0 0.0 0.0 0.0 0.0 0.0 0.0
0.0 0.0 0.0 0.0 0.0 0.0 0.0 0.0
0.0 0.0 0.0 0.0 0.0 0.0 0.0 0.0
0.0 0.0 0.0 0.0 0.0 0.0 0.0 0.0
0.0 0.0 0.0 0.0 0.0 0.0 0.0 0.0
0.0 0.0 0.0 0.0 0.0 0.0 0.0 0.0
00000000: 0000 0000 0000 0000 0000 0000 0000 0000
00000010: 0000 0000 0000 0000 0000 0000 0000 0000
00000020: 0000 0000 0000 0000 0000 0000 0000 0000
00000030: 0000 0000 0000 0000 0000 0000 0000 0000
00000040: 0000 0000 0000 0000 0000 0000 0000 0000
00000050: 0000 0000 0000 0000 0000 0000 0000 0000
00000060: 0000 0000 0000 0000 0000 0000 0000 0000
00000070: 0000 0000 0000 0000 0000 0000 0000 0000
00000080: 0000 0000 0000 0000 0000 0000 0000 0000
00000090: 0000 0000 0000 0000 0000 0000 0000 0000
000000a0: 0000 0000 0000 0000 0000 0000 0000 0000
000000b0: 0000 0000 0000 0000 0000 0000 0000 0000
000000c0: 0000 0000 0000 0000 0000 0000 0000 0000
000000d0: 0000 0000 0000 0000 0000 0000 0000 0000
000000e0: 0000 0000 0000 0000 0000 0000 0000 0000
000000f0: 0000 0000 0000 0000 0000 0000 0000 0000

weight f4 [32, 64]
0.06620386 0.062575996 0.04357046 0.06736441 -0.018836588 -0.084275976 0.08957201 -0.028985992
-0.022030175 -0.07816891 0.085077435 0.09530383 -0.06013228 0.10761902 0.08012183 0.035130247
-0.05951588 -0.08388451 0.017712027 0.055230573 -0.0818712 0.09416838 0.07743083 0.0021477193
-0.12490998 -0.09767626 0.088306844 0.011975512 -0.020509958 -0.0802678 -0.058242083 0.10445021
0.059506983 0.009867772 0.09537269 -0.072971255 -0.0421983 0.04433182 -0.09514567 0.11064394
0.080960825 0.020837352 -0.09886587 0.09357859 -0.045347527 -0.019829765 0.10420832 -0.027375638
0.118606836 -0.012930736 -0.07484238 -0.028165713 -0.11646238 0.07620646 0.059313416 0.022706285
-0.10944992 0.040280312 0.070987105 0.107340336 -0.052660063 0.05030322 0.05849795 -0.015809596
0.011251822 0.07900472 0.010378301 -0.036907807 0.048118472 0.008376092 -0.041891918 -0.012666985
0.07271685 0.12358394 -0.033000633 0.0970138 0.12064546 0.07344763 0.061439574 -0.10550228
-0.057766333 -0.051563084 0.12169172 0.019830883 -0.10627526 -0.11100559 -0.107471645 -0.090682596
-0.07548998 -0.0665762 0.09292579 -0.05129479 0.11496742 -0.028584749 -0.10098347 -0.045848325
-0.055418372 -0.085931405 -0.11659171 0.0043563843 -0.09704368 -0.035970584 -0.032855958 -0.072179735
-0.004735112 -0.096857294 -0.040636152 0.110641986 0.115608186 0.010071605 0.029068321 0.11104129
0.12003167 -0.058929726 0.019765884 -0.024737135 -0.085742176 0.11095081 0.09914157 0.0053889304
0.103069246 0.033383325 0.0825232 0.05294396 0.05915478 0.044620916 0.06273201 0.109842435
0.04888065 -0.07973525 0.04599181 0.12481724 0.10363494 0.07883307 -0.04738845 0.12347953
0.022813931 -0.06723854 -0.0046955943 0.090813875 -0.11478825 -0.028639123 0.09317939 -0.03445497
-0.05047773 -0.033699572 0.040961683 -0.096453965 0.01581408 0.03212799 0.03300108 -0.0025326163
0.061511233 -0.007378474 0.09695433 0.082755476 -0.086373895 -0.02442713 0.09721856 -0.012532353
-0.03823459 -0.007827073 -0.02872856 -0.043618083 0.027658492 0.10532944 0.018119887 0.07028791
0.09651424 -0.08134359 -0.0889093 -0.018421635 0.03723681 -0.015166268 -0.058581546 -0.08603223
0.003650546 0.093000144 0.0053921193 0.11906971 -0.05915755 0.115424514 -0.0801391 0.099312216
0.0136475265 0.12433106 0.11895248 -0.042772368 -0.009140834 -0.033943072 0.027807653 -0.06161338
-0.029048711 -0.07576476 0.076127976 0.09876107 0.013760209 -0.003804192 -0.093754455 -0.11388557
-0.096449286 -0.09255268 -0.10284874 0.05860895 -0.09535171 0.05990173 0.08317384 -0.00050503016
0.029612899 0.07801753 -0.11335331 0.107971445 0.12309323 0.1192801 -0.048796743 0.076736465
-0.04597698 0.019444302 0.10453518 0.026188716 0.04571235 -0.033277944 -0.059335172 0.10198201
-0.11281349 0.021859765 -0.012086913 -0.035208687 -0.122110724 -0.07432987 -0.07134676 0.01883915
0.048755288 -0.11362031 -0.04806879 -0.11919086 0.08548306 -0.11484671 -0.016721562 -0.01783982
-0.068538964 0.089799136 0.053478464 0.065225706 0.08811866 -0.062434047 0.060477227 0.10104114
-0.028699383 -0.010231152 0.01182583 -0.12274934 -0.013303131 -0.014953971 -0.09087904 0.091442466
00000000: e495 873d d827 803d f076 323d 5af6 893d
00000010: 304f 9abc e298 acbd 8871 b73d 0874 edbc
00000020: a078 b4bc 0617 a0bd 143d ae3d a82e c33d
00000030: 444d 76bd 5c67 dc3d ea16 a43d bce4 0f3d
00000040: ecc6 73bd a4cb abbd d018 913c 7439 623d
00000050: 16ac a7bd 5adb c03d 0e94 9e3d c0c0 0c3b
00000060: ced0 ffbd 7e0a c8bd 38da b43d f034 443c
00000070: 8004 a8bc 7263 a4bd 408f 6ebd fee9 d53d
00000080: 98bd 733d 70ac 213c c252 c33d f471 95bd
00000090: 20d8 2cbd 4895 353d bcdb c2bd 4a99 e23d
000000a0: cace a53d 18b3 aa3c 307a cabd 22a6 bf3d
000000b0: 54be 39bd 0872 a2bc 2c6b d53d e042 e0bc
000000c0: 24e8 f23d 70db 53bc f646 99bd c8bb e6bc
000000d0: d483 eebd 2212 9c3d a0f2 723d 8802 ba3c
000000e0: 4827 e0bd f8fc 243d b061 913d 40d5 db3d
000000f0: 14b2 57bd c00a 4e3d 8c9b 6f3d 2083 81bc
00000100: 9059 383c 3acd a13d c009 2a3c a42c 17bd
00000110: e017 453d e03b 093c dc96 2bbd 3089 4fbc
00000120: 92ec 943d 9419 fd3d ac2b 07bd 2caf c63d
00000130: f814 f73d b66b 963d 10a8 7b3d 9411 d8bd
00000140: 649c 6cbd d033 53bd 8239 f93d 6074 a23c
00000150: d8a6 d9bd e656 e3bd 181a dcbd ccb7 b9bd
00000160: 7e9a 9abd 1a59 88bd e04f be3d 7c1a 52bd
00000170: 0a74 eb3d 902a eabc 6cd0 cebd 74cb 3bbd
00000180: 60fe 62bd cefc afbd a2c7 eebd 00c0 8e3b
00000190: d6be c6bd e455 13bd f893 06bd f8d2 93bd
000001a0: 0029 9bbb 1e5d c6bd 1872 26bd 4498 e23d
000001b0: fcc3 ec3d 6003 253c b020 ee3c 9e69 e33d
000001c0: 2ad3 f53d 4c60 71bd 10ec a13c 88a5 cabc
000001d0: 9899 afbd 2e3a e33d bc0a cb3d a095 b03b
000001e0: f815 d33d f4bc 083d ec01 a93d c4db 583d
000001f0: 484c 723d 6cc4 363d a479 803d 12f5 e03d
00000200: 1437 483d 3c4c a3bd e861 3c3d 2ea0 ff3d
00000210: 8e3e d43d 3c73 a13d 641a 42bd d6e2 fc3d
00000220: 48e4 ba3c 5cb4 89bd 80dd 99bb a0fc b93d
00000230: 1a16 ebbd 989c eabc d6d4 be3d a820 0dbd
00000240: bcc1 4ebd 9008 0abd 70c7 273d a889 c5bd
00000250: 888c 813c a498 033d 242c 073d 40fa 25bb
00000260: 34f3 7b3d 20c7 f1bb fe8f c63d b47b a93d
00000270: cce4 b0bd 681b c8bc 861a c73d 8054 4dbc
00000280: e09b 1cbd 203d 00bc 2858 ebbc e0a8 32bd
00000290: 1094 e23c f6b6 d73d 2870 943c 1cf3 8f3d
000002a0: 42a9 c53d 7897 a6bd 1416 b6bd f8e8 96bc
000002b0: a085 183d f07b 78bc 34f3 6fbd aa31 b0bd
000002c0: 003e 6f3b dc76 be3d 60b0 b03b d2da f33d
000002d0: 304f 72bd b063 ec3d f81f a4bd 3464 cb3d
000002e0: e099 5f3c 48a1 fe3d 5c9d f33d 1432 2fbd
000002f0: 70c3 15bc e407 0bbd e0cc e33c 505e 7cbd
00000300: 90f7 edbc 8e2a 9bbd fce8 9b3d 3e43 ca3d
00000310: 8072 613c c04f 79bb 5602 c0bd d63c e9bd
00000320: 3487 c5bd 428c bdbd 5ca2 d2bd f00f 703d
00000330: c247 c3bd 845b 753d 0c57 aa3d 0064 04ba
00000340: c096 f23c a8c7 9f3d c825 e8bd 2220 dd3d
00000350: 4e18 fc3d 2049 f43d 18df 47bd 0228 9d3d
00000360: 5c52 3cbd a849 9f3c 8a16 d63d b889 d63c
00000370: e03c 3b3d 744e 08bd 7009 73bd f2db d03d
00000380: c20a e7bd 4013 b33c 3008 46bc fc36 10bd
00000390: 3015 fabd 423a 98bd 401e 92bd 9054 9a3c
000003a0: a0b3 473d c4b1 e8bd c8e3 44bd 561a f4bd
000003b0: be11 af3d c034 ebbd a8fb 88bc d024 92bc
000003c0: 285e 8cbd 9ce8 b73d 3c0c 5b3d 0e95 853d
000003d0: 8e77 b43d d8ba 7fbd f8b6 773d a8ee ce3d
000003e0: f81a ebbc 90a0 27bc 20c1 413c 0264 fbbd
000003f0: 60f5 59bc 8001 75bc ca1e babd 3046 bb3d

bias f4 [32]
-0.0046577305 -0.063414365 -0.0005851984 -0.111753896 -0.0014123172 -0.08270319 0.10784243 0.10515638
-0.07252912 0.030919075 -0.033881083 -0.041955084 0.11034082 0.110230476 0.09517732 -0.11956662
0.027013272 0.06575398 0.058395 -0.08529545 0.054841325 -0.04212074 0.010832325 -0.03128469
0.014267385 -0.061661765 0.055292457 -0.03823179 -0.03823915 0.049478546 0.048071623 0.060016364
00000000: e09f 98bb 64df 81bd 0068 19ba 3adf e4bd
00000010: 801d b9ba 4a60 a9bd 7edc dc3d 3a5c d73d
00000020: 268a 94bd 004a fd3c e4c6 0abd 18d9 2bbd
00000030: 5efa e13d 84c0 e13d 54ec c23d 58df f4bd
00000040: f04a dd3c 06aa 863d 982f 6f3d 62af aebd
00000050: 4ca1 603d cc86 2cbd 107a 313c 6024 00bd
00000060: c0c1 693c 0c91 7cbd 587a 623d f098 1cbd
00000070: a8a0 1cbd 04aa 4a3d c0e6 443d b8d3 753d

weight f4 [32]
1.0 1.0 1.0 1.0 1.0 1.0 1.0 1.0
1.0 1.0 1.0 1.0 1.0 1.0 1.0 1.0
1.0 1.0 1.0 1.0 1.0 1.0 1.0 1.0
1.0 1.0 1.0 1.0 1.0 1.0 1.0 1.0
00000000: 0000 803f 0000 803f 0000 803f 0000 803f
00000010: 0000 803f 0000 803f 0000 803f 0000 803f
00000020: 0000 803f 0000 803f 0000 803f 0000 803f
00000030: 0000 803f 0000 803f 0000 803f 0000 803f
00000040: 0000 803f 0000 803f 0000 803f 0000 803f
00000050: 0000 803f 0000 803f 0000 803f 0000 803f
00000060: 0000 803f 0000 803f 0000 803f 0000 803f
00000070: 0000 803f 0000 803f 0000 803f 0000 803f

bias f4 [32]
0.0 0.0 0.0 0.0 0.0 0.0 0.0 0.0
0.0 0.0 0.0 0.0 0.0 0.0 0.0 0.0
0.0 0.0 0.0 0.0 0.0 0.0 0.0 0.0
0.0 0.0 0.0 0.0 0.0 0.0 0.0 0.0
00000000: 0000 0000 0000 0000 0000 0000 0000 0000
00000010: 0000 0000 0000 0000 0000 0000 0000 0000
00000020: 0000 0000 0000 0000 0000 0000 0000 0000
00000030: 0000 0000 0000 0000 0000 0000 0000 0000
00000040: 0000 0000 0000 0000 0000 0000 0000 0000
00000050: 0000 0000 0000 0000 0000 0000 0000 0000
00000060: 0000 0000 0000 0000 0000 0000 0000 0000
00000070: 0000 0000 0000 0000 0000 0000 0000 0000

weight f4 [8, 32]
0.057301547 -0.0831729 -0.034487206 0.088927194 -0.1752112 0.096836366 0.118018694 0.047269586
0.11418968 0.16567127 -0.036667358 -0.096889764 -0.11345651 0.06904903 -0.107972704 0.014980085
-0.025173806 -0.12570864 0.045850396 -0.09372359 0.030270604 0.08667432 -0.051794894 -0.04803963
-0.027182125 -0.011612931 0.039882444 0.11691354 -0.16636762 0.15599328 0.1765397 -0.09678739
0.095067844 0.04357841 -0.121845864 0.008023011 -0.043258723 0.14451592 -0.07481358 -0.034606375
0.14396483 -0.097209156 -0.1621614 0.14745018 0.021556912 0.066233434 0.03223762 -0.07428218
0.047403023 0.073916845 0.0049906294 0.08744293 -0.1317594 0.046213724 0.14920168 -0.013295877
0.16479735 -0.027053408 -0.07881745 0.0077069937 0.11302925 0.0060595577 -0.12176705 0.10699687
0.05624006 -0.12360006 0.025749112 0.016747514 0.03689853 -0.018402768 0.1367128 -0.13894476
-0.011515531 0.032132566 -0.07784449 -0.012836391 -0.17045864 6.303061e-05 0.007471498 -0.030663496
-0.17263924 0.07770484 -0.07221629 0.1674529 0.16750158 0.1526574 0.14313577 0.13817315
0.0015879668 0.079894826 -0.052017935 -0.002965705 -0.12579966 -0.02190928 0.0122201415 -0.028213121
-0.16316627 0.03312614 -0.018671412 -0.07240731 -0.072168514 -0.073126025 0.10615141 0.04195862
-0.020500038 -0.06492602 0.001526896 -0.11638502 0.17639543 -0.1263564 0.078705505 -0.15356106
-0.12630826 -0.17341855 -0.09253037 -0.15220192 -0.099614225 -0.037964996 0.056941446 -0.07705936
0.10474505 -0.12573977 -0.14865303 -0.14075813 -0.14582857 0.06501499 0.12800714 0.066174515
0.015618063 0.14784548 -0.02244208 0.09966107 -0.08409263 0.029604957 -0.020352839 0.14696576
-0.07325502 0.10869693 -0.013847895 -0.12091794 -0.07537334 -0.161123 0.11741433 0.06851191
-0.1332307 -0.099600375 0.10074593 0.12768796 0.11182286 0.11107509 -0.053287167 0.16215728
-0.1658345 -0.05896574 0.07755146 0.08030249 -0.04331657 -0.08845542 0.06375996 0.094734505
0.078448094 0.01019764 0.04360869 -0.14159738 -0.16759783 -0.14622866 0.122698806 -0.02241439
0.04878449 0.098605245 -0.11029179 0.008800915 0.14740436 0.06599539 0.14251107 0.08380378
-0.1277177 -0.15352006 -0.027313033 -0.14710388 0.06877369 0.12731193 0.11525549 0.17011084
-0.07173092 0.13788748 -0.15233803 -0.08163121 0.009473874 0.11820924 -0.117780924 -0.16764842
-0.15903449 0.034399394 0.09680463 0.16168511 0.12930062 0.17231269 0.14366765 -0.16877723
-0.17658627 0.044797547 -0.12535195 0.049607344 0.1497138 0.028209329 -0.037874315 -0.06568032
-0.09342736 0.14254208 -0.05524175 0.13833253 0.049904376 -0.0048198504 0.1284892 -0.047601935
0.05667215 0.03509705 -0.16532879 -0.116344795 0.15828955 -0.020015981 -0.08447004 -0.12872581
-0.0006390727 -0.13380815 -0.060044885 0.13417478 0.17243546 0.14557491 -0.044912294 -0.15789035
0.0899242 -0.05389701 -0.12555672 0.044074453 -0.03137055 0.16561228 0.038969357 0.07282889
0.049601045 0.058121916 -0.16985367 -0.013952229 0.056351073 -0.111926794 0.14853723 0.018699186
0.020217296 0.06020873 -0.06673323 0.10667363 0.08155565 0.07975077 -0.101245455 -0.023742815
00000000: 07b5 6a3d 8e56 aabd 7542 0dbd 761f b63d
00000010: 916a 33be 2552 c63d c9b3 f13d c19d 413d
00000020: 47dc e93d bba5 293e 8330 16bd 246e c6bd
00000030: e35b e8bd 9469 8d3d cb20 ddbd 086f 753c
00000040: 4c39 cebc c4b9 00be a0cd 3b3d 27f2 bfbd
00000050: 0ffa f73c 4e82 b13d e226 54bd 34c5 44bd
00000060: 0cad debc 2a44 3ebc c65b 233d 5e70 ef3d
00000070: 465c 2abe b4bc 1f3e d3c6 343e 7838 c6bd
00000080: eeb2 c23d 467f 323d 538a f9bd f272 033c
00000090: 0f30 31bd fbfb 133e dd37 99bd 6abf 0dbd
000000a0: 846b 133e 9815 c7bd a30d 26be 2efd 163e
000000b0: 1f98 b03c 65a5 873d 980b 043d 4121 98bd
000000c0: ac29 423d b761 973d 6f88 a33b 4715 b33d
000000d0: f0eb 06be 9a4a 3d3d 53c8 183e f3d6 59bc
000000e0: a3c0 283e 1c9f ddbc 0b6b a1bd f38a fc3b
000000f0: e17b e73d 418f c63b 0161 f9bd 2d21 db3d
00000100: fa5b 663d 0722 fdbd cdef d23c 1532 893c
00000110: ea22 173d 67c1 96bc 71fe 0b3e 8947 0ebe
00000120: a3ab 3cbc 709d 033d ef6c 9fbd ba4f 52bc
00000130: b68c 2ebe 4d2f 8438 78d3 f43b 0332 fbbc
00000140: 57c8 30be b723 9f3d 22e6 93bd c678 2b3e
00000150: 8985 2b3e 3952 1c3e 2f92 123e 437d 0d3e
00000160: 5323 d03a e69f a33d c210 55bd 465c 42bb
00000170: a0d1 00be 177b b3bc fd36 483c 341f e7bc
00000180: 0f15 27be 46af 073d caf4 98bc 494a 94bd
00000190: 16cd 93bd 19c3 95bd e965 d93d cddc 2b3d
000001a0: b2ef a7bc eff7 84bd 2122 c83a 455b eebd
000001b0: 01a1 343e 9263 01be 5a30 a13d 1c3f 1dbe
000001c0: f456 01be a294 31be 9080 bdbd d2da 1bbe
000001d0: 8b02 ccbd 2f81 1bbd 6f3b 693d 4cd1 9dbd
000001e0: 9384 d63d edc1 00be 8038 18be e622 10be
000001f0: 1654 15be 9426 853d 4e14 033e 8186 873d
00000200: e7e2 7f3c ce64 173e 74d8 b7bc 1a1b cc3d
00000210: c238 acbd 1886 f23c ffba a6bc 317e 163e
00000220: ba06 96bd 7f9c de3d 48e2 62bc d3a3 f7bd
00000230: 565d 9abd 6dfd 24be ed76 f03d f94f 8c3d
00000240: a16d 08be 48fb cbbd e253 ce3d a2c0 023e
00000250: 6203 e53d 567b e33d a543 5abd 8f0c 263e
00000260: 85d0 29be 0f86 71bd 4dd3 9e3d a275 a43d
00000270: b76c 31bd 1e28 b5bd 9594 823d 2a04 c23d
00000280: 65a9 a03d 0114 273c 079f 323d e7fe 10be
00000290: c49e 2bbe f7bc 15be 8349 fb3d 629e b7bc
000002a0: 3fd2 473d 8cf1 c93d a9e0 e1bd b731 103c
000002b0: 2bf1 163e 9728 873d 6cee 113e 51a1 ab3d
000002c0: 6ec8 02be 5d34 1dbe 95bf dfbc 66a2 16be
000002d0: 38d9 8c3d 0f5e 023e 120b ec3d 8931 2e3e
000002e0: a9e7 92bd 6032 0d3e 80fe 1bbe 442e a7bd
000002f0: 4f38 1b3c b017 f23d 2037 f1bd 07ac 2bbe
00000300: f0d9 22be 61e6 0c3d 8141 c63d c890 253e
00000310: 6267 043e bd72 303e 9d1d 133e f0d3 2cbe
00000320: 08d3 34be a27d 373d 435c 00be 1231 4b3d
00000330: 934e 193e 4017 e73c 1922 1bbd 6783 86bd
00000340: d856 bfbd 8df6 113e 2c45 62bd 0ba7 0d3e
00000350: 8868 4c3d d6ef 9dbb ac92 033e 3ffa 42bd
00000360: 0e21 683d edc1 0f3d f34b 29be 2e46 eebd
00000370: a816 223e 8ef8 a3bc a1fe acbd b3d0 03be
00000380: 7187 27ba 0105 09be a0f1 75bd 1d65 093e
00000390: ec92 303e 9711 153e f4f5 37bd 02ae 21be
000003a0: 2e2a b83d 1cc3 5cbd f191 00be 6a87 343d
000003b0: 687e 00bd 4496 293e 559e 1f3d 5027 953d
000003c0: 772a 4b3d 3f11 6e3d 1fee 2dbe e497 64bc
000003d0: 62d0 663d e039 e5bd 251a 183e 092f 993c
000003e0: be9e a53c 6e9d 763d 6fab 88bd b477 da3d
000003f0: a606 a73d 5f54 a33d c759 cfbd 4b80 c2bc

bias f4 [8]
0.05726395 -0.005481577 -0.06952921 -0.028626982 0.06371322 -0.08967016 0.17665407 0.06648099
00000000: 9b8d 6a3d cd9e b3bb 5565 8ebd 2283 eabc
00000010: 147c 823d fda4 b7bd cee4 343e 2f27 883d

weight f4 [64, 37]
-0.24865562 -0.021816825 0.18007734 -0.010001394 -0.17145811 -0.26545733 -0.24314381 0.09406338
-0.17344654 0.12454141 0.10262098 0.09106564 -0.24732517 0.07754711 0.070576996 0.10115104
-0.018761707 -0.020229537 -0.025474172 -0.2644359 -0.007966767 -0.15413496 0.12069458 0.05080878
0.021327324 0.13991463 0.15601599 0.24756023 0.033742644 -0.15498823 0.08346219 0.12994766
-0.30211815 0.0080385115 0.026164478 -0.22205926 0.06970582 -0.04139489 0.13270155 -0.07587617
-0.082225226 0.06158045 -0.09189989 -0.052350946 0.06522553 0.106888905 -0.13072549 0.049562592
0.115186565 0.24322037 -0.1439662 -0.33986312 0.019640038 0.02852074 -0.29086447 0.0010874711
0.13873383 0.18758327 -0.13057646 -0.014934493 -0.09346442 -0.002992049 -0.13777769 -0.031220526
0.1932225 0.053945336 0.15793377 -0.25860742 -0.052715298 -0.13907693 -0.07452747 -0.06844976
0.031479634 -0.40167165 -0.092133865 0.2855028 -0.22751847 -0.15713982 -0.03670329 0.26132244
-0.04421475 -0.056000642 -0.13317996 -0.105313085 -0.014791328 -0.05849706 -0.20693341 0.013248849
0.14703317 -0.038788266 -0.21153837 0.073756464 0.17198142 -0.20372918 0.09041541 -0.0051707104
0.19314851 0.070011765 -0.2782465 -0.10276591 0.07812412 0.14668502 -0.06685302 0.1311792
0.07778403 -0.07393779 0.30722752 0.014337162 0.075705275 -0.25714883 -0.044260655 -0.16470914
-0.072975226 -0.036134083 0.11557711 0.15635559 0.04522644 0.005881811 0.050397366 0.020397145
0.15028542 -0.013568328 0.07409845 0.04882745 -0.23690857 0.021717694 0.004987953 0.09402688
-0.025643483 0.15713637 -0.1538161 0.009112855 -0.10273716 -0.070643 0.26999158 -0.21920498
0.09420705 0.010893206 -0.3496778 -0.30992582 -0.09339376 -0.14486988 -0.192482 0.2635498
0.22146955 -0.41060668 -0.15191285 0.077407494 -0.21758068 0.04492322 0.113565475 0.3311711
-0.1174894 -0.023866544 -0.10438905 0.00070284744 -0.057610158 -0.20313497 -0.23489591 0.069786586
0.29604703 0.19618396 0.030953785 0.19047564 -0.20192096 0.021316098 -0.41402003 -0.010595101
0.14873447 0.15164429 -0.097172074 -0.14948326 -0.18702094 -0.03900793 0.15434039 0.20116505
-0.20532033 0.16919523 0.03306192 0.18744488 0.17717485 -0.078770876 -0.028161306 0.19169824
0.23378573 0.1708711 0.12759463 0.06548072 0.30964068 0.2579209 -0.23031853 -0.028841877
0.111062184 0.06780586 0.019905047 0.1318724 0.089072905 0.28121015 -0.3093924 -0.33129144
0.19698292 0.10679834 0.26803017 -0.07386293 -0.13125096 0.24384966 0.19032784 0.05288248
0.29105708 0.10721606 0.08013388 0.19293156 -0.19236949 0.15132958 0.13152914 0.08635215
0.054862015 -0.09979518 -0.10242268 -0.041864295 -0.08251944 -0.019144265 0.085443586 -0.34213433
0.0336356 0.06617859 0.06014888 -0.1236818 0.10028826 -0.18942459 -0.11297274 -0.061007638
0.14977884 0.17083114 0.3793118 -0.023291027 0.21812157 -0.0004600997 0.13652384 -0.008066135
-0.11018089 0.10256897 -0.16723752 0.046172936 -0.24233615 0.18175448 0.28947154 -0.016753964
-0.12848029 0.08791526 -0.30480602 -0.087769695 0.19343287 0.001966223 0.1765916 -0.13180743
00000000: 949f 7ebe 33b9 b2bc 3266 383e e3dc 23bc
00000010: b792 2fbe 06ea 87be b1fa 78be 4da4 c03d
00000020: f89b 31be 910f ff3d f32a d23d 9f80 ba3d
00000030: cf42 7dbe 05d1 9e3d ac8a 903d 4728 cf3d
00000040: 27b2 99bc 6ab8 a5bc 36af d0bc 2464 87be
00000050: 0b87 02bc 8ed5 1dbe b82e f73d de1c 503d
00000060: a4b6 ae3c c845 0f3e a8c2 1f3e 6e80 7d3e
00000070: ba35 0a3d 3cb5 1ebe 3aee aa3d 0011 053e
00000080: 3baf 9abe f6b3 033c e356 d63c 8163 63be
00000090: edc1 8e3d b08d 29bd eae2 073e f764 9bbd
000000a0: b365 a8bd c83b 7c3d 0236 bcbd f26d 56bd
000000b0: f694 853d 92e8 da3d e7dc 05be 2502 4b3d
000000c0: efe6 eb3d c30e 793e e06b 13be 8a02 aebe
000000d0: 25e4 a03c 54a4 e93c 30ec 94be 7a89 8e3a
000000e0: 3e10 0e3e d415 403e d6b5 05be ceaf 74bc
000000f0: 466a bfbd 4116 44bb 9815 0dbe 30c2 ffbc
00000100: 1edc 453e c9f5 5c3d 64b9 213e 3168 84be
00000110: ffeb 57bd 2f6a 0ebe dca1 98bd 632f 8cbd
00000120: caf0 003d e8a7 cdbe aeb0 bcbd 6c2d 923e
00000130: 9afa 68be 43e9 20be 3056 16bd 0ecc 853e
00000140: 871a 35bd ee60 65bd 5460 08be 63ae d7bd
00000150: 5457 72bc 9d9a 6fbd 5ae6 53be b311 593c
00000160: dd8f 163e 72e0 1ebd 849d 58be a10d 973d
00000170: e61b 303e 629e 50be b72b b93d 106f a9bb
00000180: b9c8 453e 5462 8f3d 5376 8ebe ef76 d2bd
00000190: 8aff 9f3d 9934 163e 3cea 88bd d753 063e
000001a0: 3c4d 9f3d b26c 97bd ed4c 9d3e 6ae6 6a3c
000001b0: 5e0b 9b3d 03a9 83be a94a 35bd 83a9 28be
000001c0: 0974 95bd 5501 14bd b1b3 ec3d ae1b 203e
000001d0: 5c3f 393d 35bc c03b 786d 4e3d ea17 a73c
000001e0: 6ce4 193e b14d 5ebc eec0 973d 4bff 473d
000001f0: 2998 72be 4ee9 b13c fc71 a33b 2a91 c03d
00000200: 4812 d2bc 5be8 203e f881 1dbe 164e 153c
00000210: dc67 d2bd 47ad 90bd 563c 8a3e 4577 60be
00000220: a0ef c03d 6b79 323c f808 b3be 99ae 9ebe
00000230: 3a45 bfbd c558 14be 001a 45be 00f0 863e
00000240: eac8 623e 0a3b d2be 0b8f 1bbe d287 9e3d
00000250: 78cd 5ebe 6901 383d 0495 e83d 428f a93e
00000260: 489e f0bd c583 c3bc edc9 d5bd 4b3f 383a
00000270: a1f8 6bbd 9d02 50be 8e88 70be 45ec 8e3d
00000280: 7a93 973e 73e4 483e cb92 fd3c 0c0c 433e
00000290: 5ec4 4ebe 199f ae3c 6ffa d3be 1397 2dbc
000002a0: d94d 183e a448 1b3e 2702 c7bd 2412 19be
000002b0: 6b82 3fbe c7c6 1fbd 680b 1e3e 36fe 4d3e
000002c0: 7e3f 52be 8441 2d3e f06b 073d 8df1 3f3e
000002d0: 536d 353e a052 a1bd 8ab2 e6bc 8b4c 443e
000002e0: 8765 6f3e d5f8 2e3e 2ba8 023e c11a 863d
000002f0: 3989 9e3e 350e 843e 9fd8 6bbe cd45 ecbc
00000300: 9274 e33d ccdd 8a3d e90f a33c 8f09 073e
00000310: db6b b63d c7fa 8f3e ae68 9ebe 089f a9be
00000320: e4b5 493e 17b9 da3d 403b 893e 7345 97bd
00000330: a766 06be bab3 793e 4de5 423e 4d9b 583d
00000340: 6f05 953e 1894 db3d 3b1d a43d da8f 453e
00000350: 82fc 44be 24f6 1a3e 93af 063e 65d9 b03d
00000360: feb6 603d 6a61 ccbd fbc2 d1bd e579 2bbd
00000370: f4ff a8bd 6fd4 9cbc 0cfd ae3d 3b2c afbe
00000380: 7cc5 093d a488 873d ac5e 763d e24c fdbd
00000390: ee63 cd3d 85f8 41be 405e e7bd 25e3 79bd
000003a0: a05f 193e 5cee 2e3e 2835 c23e d3cc bebc
000003b0: 435b 5f3e 8939 f1b9 e8cc 0b3e d327 04bc
000003c0: 85a6 e1bd ae0f d23d 5040 2bbe d51f 3d3d
000003d0: f826 78be d91d 3a3e 9d35 943e 9c3f 89bc
000003e0: 5690 03be ea0c b43d 890f 9cbe 99c0 b3bd
000003f0: 4413 463e bfdb 003b 6ed4 343e 87f8 06be

bias f4 [64]
0.0 0.0 0.0 0.0 0.0 0.0 0.0 0.0
0.0 0.0 0.0 0.0 0.0 0.0 0.0 0.0
0.0 0.0 0.0 0.0 0.0 0.0 0.0 0.0
0.0 0.0 0.0 0.0 0.0 0.0 0.0 0.0
0.0 0.0 0.0 0.0 0.0 0.0 0.0 0.0
0.0 0.0 0.0 0.0 0.0 0.0 0.0 0.0
0.0 0.0 0.0 0.0 0.0 0.0 0.0 0.0
0.0 0.0 0.0 0.0 0.0 0.0 0.0 0.0
00000000: 0000 0000 0000 0000 0000 0000 0000 0000
00000010: 0000 0000 0000 0000 0000 0000 0000 0000
00000020: 0000 0000 0000 0000 0000 0000 0000 0000
00000030: 0000 0000 0000 0000 0000 0000 0000 0000
00000040: 0000 0000 0000 0000 0000 0000 0000 0000
00000050: 0000 0000 0000 0000 0000 0000 0000 0000
00000060: 0000 0000 0000 0000 0000 0000 0000 0000
00000070: 0000 0000 0000 0000 0000 0000 0000 0000
00000080: 0000 0000 0000 0000 0000 0000 0000 0000
00000090: 0000 0000 0000 0000 0000 0000 0000 0000
000000a0: 0000 0000 0000 0000 0000 0000 0000 0000
000000b0: 0000 0000 0000 0000 0000 0000 0000 0000
000000c0: 0000 0000 0000 0000 0000 0000 0000 0000
000000d0: 0000 0000 0000 0000 0000 0000 0000 0000
000000e0: 0000 0000 0000 0000 0000 0000 0000 0000
000000f0: 0000 0000 0000 0000 0000 0000 0000 0000

weight f4 [64]
1.0 1.0 1.0 1.0 1.0 1.0 1.0 1.0
1.0 1.0 1.0 1.0 1.0 1.0 1.0 1.0
1.0 1.0 1.0 1.0 1.0 1.0 1.0 1.0
1.0 1.0 1.0 1.0 1.0 1.0 1.0 1.0
1.0 1.0 1.0 1.0 1.0 1.0 1.0 1.0
1.0 1.0 1.0 1.0 1.0 1.0 1.0 1.0
1.0 1.0 1.0 1.0 1.0 1.0 1.0 1.0
1.0 1.0 1.0 1.0 1.0 1.0 1.0 1.0
00000000: 0000 803f 0000 803f 0000 803f 0000 803f
00000010: 0000 803f 0000 803f 0000 803f 0000 803f
00000020: 0000 803f 0000 803f 0000 803f 0000 803f
00000030: 0000 803f 0000 803f 0000 803f 0000 803f
00000040: 0000 803f 0000 803f 0000 803f 0000 803f
00000050: 0000 803f 0000 803f 0000 803f 0000 803f
00000060: 0000 803f 0000 803f 0000 803f 0000 803f
00000070: 0000 803f 0000 803f 0000 803f 0000 803f
00000080: 0000 803f 0000 803f 0000 803f 0000 803f
00000090: 0000 803f 0000 803f 0000 803f 0000 803f
000000a0: 0000 803f 0000 803f 0000 803f 0000 803f
000000b0: 0000 803f 0000 803f 0000 803f 0000 803f
000000c0: 0000 803f 0000 803f 0000 803f 0000 803f
000000d0: 0000 803f 0000 803f 0000 803f 0000 803f
000000e0: 0000 803f 0000 803f 0000 803f 0000 803f
000000f0: 0000 803f 0000 803f 0000 803f 0000 803f

bias f4 [64]
0.0 0.0 0.0 0.0 0.0 0.0 0.0 0.0
0.0 0.0 0.0 0.0 0.0 0.0 0.0 0.0
0.0 0.0 0.0 0.0 0.0 0.0 0.0 0.0
0.0 0.0 0.0 0.0 0.0 0.0 0.0 0.0
0.0 0.0 0.0 0.0 0.0 0.0 0.0 0.0
0.0 0.0 0.0 0.0 0.0 0.0 0.0 0.0
0.0 0.0 0.0 0.0 0.0 0.0 0.0 0.0
0.0 0.0 0.0 0.0 0.0 0.0 0.0 0.0
00000000: 0000 0000 0000 0000 0000 0000 0000 0000
00000010: 0000 0000 0000 0000 0000 0000 0000 0000
00000020: 0000 0000 0000 0000 0000 0000 0000 0000
00000030: 0000 0000 0000 0000 0000 0000 0000 0000
00000040: 0000 0000 0000 0000 0000 0000 0000 0000
00000050: 0000 0000 0000 0000 0000 0000 0000 0000
00000060: 0000 0000 0000 0000 0000 0000 0000 0000
00000070: 0000 0000 0000 0000 0000 0000 0000 0000
00000080: 0000 0000 0000 0000 0000 0000 0000 0000
00000090: 0000 0000 0000 0000 0000 0000 0000 0000
000000a0: 0000 0000 0000 0000 0000 0000 0000 0000
000000b0: 0000 0000 0000 0000 0000 0000 0000 0000
000000c0: 0000 0000 0000 0000 0000 0000 0000 0000
000000d0: 0000 0000 0000 0000 0000 0000 0000 0000
000000e0: 0000 0000 0000 0000 0000 0000 0000 0000
000000f0: 0000 0000 0000 0000 0000 0000 0000 0000
